…
est import IForest\n\ntest_outlier_detector(\n    X_train, y_train, X_test, y_test, \n    only_neg=True, basemethod=IForest(contamination=0.01),\n)\n#On Test Data:\n#IForest ROC:0.867, precision @ rank n:0.1\n```", "```py\nfrom pyod.models.auto_encoder import AutoEncoder\n\ntest_outlier_detector(\n    X_train, y_train, X_test, y_test, \n    only_neg=False, \n    basemethod=AutoEncoder(hidden_neurons=[1], epochs=10)\n)\n```", "```py\nLayer (type)                 Output Shape              Param #   \n=================================================================\ndense_39 (Dense)             (None, 1)                 2         \n_________________________________________________________________\ndropout_30 (Dropout)         (None, 1)                 0         \n_________________________________________________________________\ndense_40 (Dense)             (None, 1)                 2         \n_________________________________________________________________\ndropout_31 (Dropout)         (None, 1)                 0         \n_________________________________________________________________\ndense_41 (Dense)             (None, 1)                 2         \n_________________________________________________________________\ndropout_32 (Dropout)         (None, 1)                 0         \n_________________________________________________________________\ndense_42 (Dense)             (None, 1)                 2         \n=================================================================\nTotal params: 8\nTrainable params: 8\nNon-trainable params: 0\n\n... \nOn Test Data:\nAutoEncoder ROC:0.8174, precision @ rank n:0.1\n```", "```py\n!wget https://raw.githubusercontent.com/ofrendo/WebDataIntegration/7db877abadd2be94d5373f5f47c8ccd1d179bea6/data/goldstandard/forbes_freebase_goldstandard_train.csv\n```", "`
…
