…
x, name='conv1d_sound')\n    model.compile(\n        optimizer=keras.optimizers.Adam(lr=3e-4),\n        loss=keras.losses.SparseCategoricalCrossentropy(),\n        metrics=[keras.metrics.sparse_categorical_accuracy])\n    model.summary()\n    return model\n\nmodel = create_model(classes\n```", "```py\nLayer (type)                 Output Shape              Param #   \n=================================================================\ninput_46 (InputLayer)        [(None, 22050)]           0         \n_________________________________________________________________\nlambda_44 (Lambda)           (None, 22050)             0         \n_________________________________________________________________\nreshape_86 (Reshape)         (None, 22050, 1)          0         \n_________________________________________________________________\nconv1d_56 (Conv1D)           (None, 21951, 100)        10000     \n_________________________________________________________________\nbatch_normalization_43 (Batc (None, 21951, 100)        400       \n_________________________________________________________________\nactivation_43 (Activation)   (None, 21951, 100)        0         \n_________________________________________________________________\nmax_pooling1d_29 (MaxPooling (None, 219, 100)          0         \n_________________________________________________________________\nreshape_87 (Reshape)         (None, 21900)             0         \n_________________________________________________________________\ndense_33 (Dense)             (None, 3)                 65703     \n=================================================================\nTotal params: 76,103\nTrainable params: 75,903\nNon-trainable params: 200\n_________________________________________________________________\n```", "```py\nimport sklearn\n\nmodel.fit(X_train, y_train, epochs=30)\npredicted = model.predict(X_test)\nprint('accuracy: {:.3f}'.format(\n    sklearn.metrics.accuracy_score(y_test, 
…
