…
3) self.conv2_drop = nn.Dropout2d()\nself.fc1 = nn.Linear(56180, 500) self.fc2 = nn.Linear(500,50) self.fc3 = nn.Linear(50, 2)\n\ndef forward(self, x):\nx = F.relu(F.max_pool2d(self.conv1(x), 2))\nx = F.relu(F.max_pool2d(self.conv2_drop(self.conv2(x)), 2)) x = x.view(x.size(0),-1)\nx = F.relu(self.fc1(x))\nx = F.dropout(x, training=self.training) x = F.relu(self.fc2(x))\nx = F.dropout(x,training=self.training) x = self.fc3(x)\nreturn F.log_softmax(x,dim=1)\n```", "```py\nfrom torchvision import models\nvgg = models.vgg16(pretrained=True)\n```", "```py\nVGG (\n  (features): Sequential (\n    (0): Conv2d(3, 64, kernel_size=(3, 3), stride=(1, 1), padding=(1, 1))\n    (1): ReLU (inplace)\n    (2): Conv2d(64, 64, kernel_size=(3, 3), stride=(1, 1), padding=(1, 1))\n    (3): ReLU (inplace)\n    (4): MaxPool2d (size=(2, 2), stride=(2, 2), dilation=(1, 1))\n    (5): Conv2d(64, 128, kernel_size=(3, 3), stride=(1, 1), padding=(1, 1))\n    (6): ReLU (inplace)\n   (7): Conv2d(128, 128, kernel_size=(3, 3), stride=(1, 1), padding=(1, 1))\n    (8): ReLU (inplace)\n    (9): MaxPool2d (size=(2, 2), stride=(2, 2), dilation=(1, 1))\n    (10):Conv2d(128, 256, kernel_size=(3, 3), stride=(1,1), padding=(1, 1))\n    (11): ReLU (inplace)\n    (12): Conv2d(256, 256, kernel_size=(3, 3), stride=(1, 1), padding=(1, 1))\n    (13): ReLU (inplace)\n    (14): Conv2d(256, 256, kernel_size=(3, 3), stride=(1, 1), padding=(1, 1))\n    (15): ReLU (inplace)\n    (16): MaxPool2d (size=(2, 2), stride=(2, 2), dilation=(1, 1))\n    (17): Conv2d(256, 512, kernel_size=(3, 3), stride=(1, 1), padding=(1, 1))\n    (18): ReLU (inplace)\n    (19): Conv2d(512, 512, kernel_size=(3, 3), stride=(1, 1), padding=(1, 1))\n    (20): ReLU (inplace)\n    (21): Conv2d(512, 512, kernel_size=(3, 3), stride=(1, 1), padding=(1, 1))\n    (22): ReLU (inplace)\n    (23): MaxPool2d (size=(2, 2), stride=(2, 2), dilation=(1, 1))\n    (24): Conv2d(512, 512, kernel_size=(3, 3), stride=(1, 1), padding=(1,1))\n    (25): ReLU (inplace)   \n    (26): Conv2d(512, 512, kernel_size=(3, 3), stride=(1, 1), padding=(1, 1))\n    (27): ReLU (inplace)\n    (28): Conv2d(512, 512, kernel_size=(3, 3), stride=(1, 1), padding=(1, 1))\n    (29): ReLU (inplace)\n    (30): MaxPool2d (size=(2, 2), stride=(2, 2), dilation=(1, 1))\n  )\n  (classifier): Sequential ( \n    (0): Linear (25088 -> 4096)\n    (1): ReLU (inplace)\n    (2): Dropout (p = 0.5)\n    (3): Linear (4096 -> 4096)\n    (4): ReLU (inplace)\n    (5): Dropout (p = 0.5)\n    (6): Linear (4096 -> 1000)\n  )\n)
…
