…
nn.Conv2d(n_filters*2, n_filters*4,\n...                       3, 2, 1, bias=False),\n...             nn.BatchNorm2d(n_filters*4),\n...             nn.LeakyReLU(0.2),\n...             nn.Conv2d(n_filters*4, 1, 4, 1, 0, bias=False),\n...             nn.Sigmoid()\n...         )\n... \n...     def forward(self, input):\n...         output = self.network(input)\n...         return output.view(-1, 1).squeeze(0) \n```", "```py\n>>> z_size = 100\n>>> image_size = (28, 28)\n>>> n_filters = 32\n>>> gen_model = make_generator_network(z_size, n_filters).to(device)\n>>> print(gen_model)\nSequential(\n  (0): ConvTranspose2d(100, 128, kernel_size=(4, 4), stride=(1, 1), bias=False)\n  (1): BatchNorm2d(128, eps=1e-05, momentum=0.1, affine=True, track_running_stats=True)\n  (2): LeakyReLU(negative_slope=0.2)\n  (3): ConvTranspose2d(128, 64, kernel_size=(3, 3), stride=(2, 2), padding=(1, 1), bias=False)\n  (4): BatchNorm2d(64, eps=1e-05, momentum=0.1, affine=True, track_running_stats=True)\n  (5): LeakyReLU(negative_slope=0.2)\n  (6): ConvTranspose2d(64, 32, kernel_size=(4, 4), stride=(2, 2), padding=(1, 1), bias=False)\n  (7): BatchNorm2d(32, eps=1e-05, momentum=0.1, affine=True, track_running_stats=True)\n  (8): LeakyReLU(negative_slope=0.2)\n  (9): ConvTranspose2d(32, 1, kernel_size=(4, 4), stride=(2, 2), padding=(1, 1), bias=False)\n  (10): Tanh()\n) \n```", "```py\n>>> disc_model = Discriminator(n_filters).to(device)\n>>> print(disc_model)\nDiscriminator(\n  (network): Sequential(\n    (0): Conv2d(1, 32, kernel_size=(4, 4), stride=(2, 2), padding=(1, 1), bias=False)\n    (1): LeakyReLU(negative_slope=0.2)\n    (2): Conv2d(32, 64, kernel_size=(4, 4), stride=(2, 2), padding=(1, 1), bias=False)\n    (3): BatchNorm2d(64, eps=1e-05, momentum=0.1, affine=True, track_running_stats=True)\n    (4): LeakyReLU(negative_slope=0.2)\n    (5): Conv2d(64, 128, kernel_size=(3, 3), stride=(2, 2), padding=(1, 1), bias=False)\n    (6): BatchNorm2d(128, eps=1e-05, momentum=0.1, affine=True, track_running_stats=True)\n    (7): LeakyReLU(negative_slope=0.2)\n    (8): Conv2d(128, 1, kernel_size=(4, 4), stride=(1, 1), bias=False)\n    (9): Sigmoid()\n  )\n) \n```", "```py\n>>> loss_fn = nn.BCELoss()\n>>> g_optimizer = torch.optim.Adam(gen_model.parameters(), 0.0003)\n>>> d_optimizer = torch.optim.Adam(disc_model.parameters(), 0.0002) \n```", "```py\n>>> def create_noise(batch_size, z_size, mode_z):\n...     if mode_z == 'uniform':\n...         input_z = torch.rand(batc
…
