…
diate_size\": 3072,\n  \"layer_norm_eps\": 1e-12,\n  \"max_position_embeddings\": 512,\n  \"model_type\": \"bert\",\n  \"num_attention_heads\": 12,\n  \"num_hidden_layers\": 12,\n  \"pad_token_id\": 0,\n  \"type_vocab_size\": 2,\n  \"vocab_size\": 30522\n} \n```", "```py\n#@title Loading the Hugging Face Bert uncased base model \nmodel = BertForSequenceClassification.from_pretrained(\"bert-base-uncased\", num_labels=2)\nmodel = nn.DataParallel(model)\nmodel.to(device) \n```", "```py\nBertForSequenceClassification(\n  (bert): BertModel(\n    (embeddings): BertEmbeddings(\n      (word_embeddings): Embedding(30522, 768, padding_idx=0)\n      (position_embeddings): Embedding(512, 768)\n      (token_type_embeddings): Embedding(2, 768)\n      (LayerNorm): BertLayerNorm()\n      (dropout): Dropout(p=0.1, inplace=False)\n    )\n    (encoder): BertEncoder(\n      (layer): ModuleList(\n        (0): BertLayer(\n          (attention): BertAttention(\n            (self): BertSelfAttention(\n              (query): Linear(in_features=768, out_features=768, bias=True)\n              (key): Linear(in_features=768, out_features=768, bias=True)\n              (value): Linear(in_features=768, out_features=768, bias=True)\n              (dropout): Dropout(p=0.1, inplace=False)\n            )\n            (output): BertSelfOutput(\n              (dense): Linear(in_features=768, out_features=768, bias=True)\n              (LayerNorm): BertLayerNorm()\n              (dropout): Dropout(p=0.1, inplace=False)\n            )\n          )\n          (intermediate): BertIntermediate(\n            (dense): Linear(in_features=768, out_features=3072, bias=True)\n          )\n          (output): BertOutput(\n            (dense): Linear(in_features=3072, out_features=768, bias=True)\n            (LayerNorm): BertLayerNorm()\n            (dropout): Dropout(p=0.1, inplace=False)\n          )\n        )\n        (1): BertLayer(\n          (attention): BertAttention(\n            (self): BertSelfAttention(\n              (query): Linear(in_features=768, out_features=768, bias=True)\n              (key): Linear(in_features=768, out_features=768, bias=True)\n              (value): Linear(in_features=768, out_features=768, bias=True)\n              (dropout): Dropout(p=0.1, inplace=False)\n            )\n            (output): BertSelfOutput(\n              (dense): Linear(in_features=768, out_features=768, bias=True)\n              (LayerNorm): BertLayerNorm()\n              (dropout): Dropout(p=0.1, inplace=False)\n            )\n          )\n          (intermediate): BertIntermediate(\n            (dense): Linear(in_features=768, out_features=3072, bias=True)\n          )\n          (output): BertOutput(\n            (dense): Linear(in_features=3072, out_features=768, bias=True)\n            (LayerNorm): BertLayerNorm()\n            (dropout): Dropout(p=0.1, inplace=False)\n          )\n        ) \n```", "```py\n##@title Optimizer Grouped Parameters\n#This code is taken from:\n# https://github.com/huggingface/transformers/blob/5bfcd0485ece086ebcbed2d008813037968a9e58/examples/run_glue.py#L102\n# Don't apply weight decay to an
…
