…
xt_features.T).softmax(dim=-1)\nvalues, indices = similarity[0].topk(5)\n# Print the result\nprint(\"\\nTop predictions:\\n\")\nfor value, index in zip(values, indices):\n    print(f\"{cifar100.classes[index]:>16s}: {100 * value.item():.2f}%\") \n```", "```py\nTop predictions:\n            lion: 96.34%\n           tiger: 1.04%\n           camel: 0.28%\n      lawn_mower: 0.26%\n         leopard: 0.26% \n```", "```py\ncifar100.classes \n```", "```py\n[...,'kangaroo','keyboard','lamp','lawn_mower','leopard','lion',\n 'lizard', ...] \n```", "```py\nCLIP(\n  (visual): VisionTransformer(\n    (conv1): Conv2d(3, 768, kernel_size=(32, 32), stride=(32, 32), bias=False)\n    (ln_pre): LayerNorm((768,), eps=1e-05, elementwise_affine=True)\n    (transformer): Transformer(\n      (resblocks): Sequential(\n        (0): ResidualAttentionBlock(\n          (attn): MultiheadAttention(\n            (out_proj): NonDynamicallyQuantizableLinear(in_features=768, out_features=768, bias=True)\n          )\n          (ln_1): LayerNorm((768,), eps=1e-05, elementwise_affine=True)\n          (mlp): Sequential(\n            (c_fc): Linear(in_features=768, out_features=3072, bias=True)\n            (gelu): QuickGELU()\n            (c_proj): Linear(in_features=3072, out_features=768, bias=True)\n          )\n          (ln_2): LayerNorm((768,), eps=1e-05, elementwise_affine=True)\n        ) \n```", "```py\n(transformer): Transformer(\n    (resblocks): Sequential(\n      (0): ResidualAttentionBlock(\n        (attn): MultiheadAttention(\n          (out_proj): NonDynamicallyQuantizableLinear(in_features=512, out_features=512, bias=True)\n        )\n        (ln_1): LayerNorm((512,), eps=1e-05, elementwise_affine=True)\n        (mlp): Sequential(\n          (c_fc): Linear(in_features=512, out_features=2048, bias=True)\n          (gelu): QuickGELU()\n          (c_proj): Linear(in_features=2048, out_features=512, bias=True)\n        )\n        (ln_2): LayerNorm((512,), eps=1e-05, elementwise_affine=True)\n      ) \n```", "```py\n!pip install DALL-E \n```", "```py\nimport io\nimport os, sys\nimport requests\nimport PIL\nimport torch\nimport torchvision.transforms as T\nimport torchvision.transforms.functional as TF\nfrom dall_e import map_pixels, unmap_pixels, load_model\nfrom IPython.display import display, display_markdown\ntarget_image_size = 256\ndef 
…
