…
   num_attention_heads=12,\n    num_hidden_layers=6,\n    type_vocab_size=1,\n) \n```", "```py\n#@title Step 8: Re-creating the Tokenizer in Transformers\nfrom transformers import RobertaTokenizer\ntokenizer = RobertaTokenizer.from_pretrained(\"./KantaiBERT\", max_length=512) \n```", "```py\n#@title Step 9: Initializing a Model From Scratch\nfrom transformers import RobertaForMaskedLM \n```", "```py\nmodel = RobertaForMaskedLM(config=config) \n```", "```py\nprint(model) \n```", "```py\nRobertaForMaskedLM(\n  (roberta): RobertaModel(\n    (embeddings): RobertaEmbeddings(\n      (word_embeddings): Embedding(52000, 768, padding_idx=1)\n      (position_embeddings): Embedding(514, 768, padding_idx=1)\n      (token_type_embeddings): Embedding(1, 768)\n      (LayerNorm): LayerNorm((768,), eps=1e-12, elementwise_affine=True)\n      (dropout): Dropout(p=0.1, inplace=False)\n    )\n    (encoder): BertEncoder(\n      (layer): ModuleList(\n        (0): BertLayer(\n          (attention): BertAttention(\n            (self): BertSelfAttention(\n              (query): Linear(in_features=768, out_features=768, bias=True)\n              (key): Linear(in_features=768, out_features=768, bias=True)\n              (value): Linear(in_features=768, out_features=768, bias=True)\n              (dropout): Dropout(p=0.1, inplace=False)\n            )\n            (output): BertSelfOutput(\n              (dense): Linear(in_features=768, out_features=768, bias=True)\n              (LayerNorm): LayerNorm((768,), eps=1e-12, elementwise_affine=True)\n              (dropout): Dropout(p=0.1, inplace=False)\n            )\n          )\n          (intermediate): BertIntermediate(\n            (dense): Linear(in_features=768, out_features=3072, bias=True)\n          )\n          (output): BertOutput(\n            (dense): Linear(in_features=3072, out_features=768, bias=True)\n            (LayerNorm): LayerNorm((768,), eps=1e-12, elementwise_affine=True)\n            (dropout): Dropout(p=0.1, inplace=False)\n          )\n        )\n…/… \n```", "```py\nprint(model.num_parameters()) \n```", "```py\n84095008 \n```", "```py\n#@title Exploring the Parameters\nLP=list(model.parameters())\nlp=len(LP)\nprint(lp) \n```", "```py\n108 \n```", "```py\nfor p in range(0,lp):\n  print(LP[p]) \n```", "```py\nParameter c
…
